p1_navigation/trained_model.pth (torch_old, 28417 bytes, 6 tensors)

fc1.weight f4 [64, 37]
0	0x3e2bc337	0.16773687
1	0xbc34875e	-0.011018602
2	0xbe9a913c	-0.3018893
3	0xbe5319b4	-0.20615274
4	0xbee68b02	-0.4502793
5	0xbcde0d08	-0.027105823
6	0xbb3e68c4	-0.0029054144
7	0x3dad2f49	0.084562846
8	0x3e21b46e	0.15791485
9	0xbe2d6e09	-0.16936506
10	0xbdc9c714	-0.09852424
11	0xbe27258c	-0.16322917
12	0xbd809c97	-0.06279867
13	0xbc4b6a69	-0.012415507
14	0x3d033390	0.032031596
15	0x3e039799	0.12850799
16	0xbe0782a0	-0.13233423
17	0x3c56c331	0.013108061
18	0xbe073ad2	-0.13206032
19	0xbe99d867	-0.30047914
20	0x3da37739	0.07981724
21	0x3de35d7b	0.11101814
22	0x3d9522dd	0.0728204
23	0xbd482c83	-0.048870575
24	0xbdb822f3	-0.08991041
25	0x3d962cad	0.0733274
26	0x3dbd397d	0.09239481
27	0xbe0596d4	-0.13045818
28	0xbe301c80	-0.17198372
29	0xbf009a15	-0.5023511
30	0xbe8b2118	-0.27173686
31	0x3e267981	0.16257288
32	0x3ce31dbc	0.02772414
33	0xbe4b1b85	-0.19834717
34	0x3d1f4d23	0.038891923
35	0xbdaa83eb	-0.083259426
36	0xbd864e74	-0.065579325
37	0x3e4d06f5	0.20022185
38	0x3df4da92	0.119557515
39	0x3e077968	0.13229907
40	0x3e09ec4e	0.1346905
41	0x3c63159e	0.013860134
42	0x3e1a042a	0.15040651
43	0xbddfc2dd	-0.10925839
44	0xbbc51645	-0.0060146176
45	0xbdf5972c	-0.11991724
46	0xbe72e611	-0.23720576
47	0x3e489344	0.19587427
48	0x3d044f08	0.032301933
49	0x3b007d72	0.0019606021
50	0x3e007147	0.12543212
51	0xbda7f02e	-0.082001075
52	0x3e6d7f6a	0.23193136
53	0x3c95cff2	0.018287633
54	0x3bcd1718	0.0062588565
55	0x3dea962b	0.114544235
56	0xbdf20bed	-0.11818681
57	0x3c42c0c7	0.011886782
58	0xbcb12269	-0.021622853
59	0xbd5f1b0a	-0.054469146
60	0x3d84fc0d	0.06493387
61	0x3ea501cb	0.3222793
62	0x3cd8e167	0.026474668
63	0x3e04fec4	0.1298781
64	0x3d9890d1	0.074494965
65	0x3d0672cb	0.03282432
66	0xbea55868	-0.3229401
67	0x3e0d3d68	0.13792956
68	0x3e211a2c	0.1573264
69	0x3e194b66	0.14970168
70	0xbd489563	-0.04897059
71	0x3d448722	0.047980435
72	0xbcef5080	-0.02921319
73	0x3b70b5c0	0.0036729425
74	0xbc9f0233	-0.019410228
75	0x3e0075fe	0.1254501
76	0x3e34fc80	0.17674446
77	0x3e455207	0.19269572
78	0x3d91cc1e	0.071190104
79	0xbe783f13	-0.24242811
80	0x3e3f858e	0.18703291
81	0x3ea13fea	0.31494075
82	0xbcf49367	-0.029855443
83	0xbe920044	-0.28515828
84	0xbd583180	-0.052781582
85	0x3d2caa25	0.04215445
86	0x3defe21e	0.1171305
87	0x3c9b2982	0.01894069
88	0x3deb5515	0.114908375
89	0xbc7e5b9c	-0.015524771
90	0x3d752506	0.05984976
91	0x3df6c1e5	0.12048701
92	0x3e364d5e	0.1780295
93	0x3df7d2da	0.121007636
94	0x3e2fb2bf	0.1715803
95	0xbd5b9db1	-0.053617183
96	0xbc75eafe	-0.01500964
97	0xbe8ec87b	-0.2788733
98	0xbf2990ea	-0.66236746
99	0xbe63f928	-0.22263014
100	0x3e95025f	0.29103372
101	0x3e5cecb5	0.21574672
102	0x3dd86157	0.10565441
103	0xbd26438c	-0.04059176
104	0xbe124f99	-0.14288177
105	0x3d986938	0.07441944
106	0x3c1092f3	0.008824098
107	0xbdcfb5f7	-0.10142129
108	0xbdb69c86	-0.08916573
109	0x3b188d3d	0.0023277544
110	0xbaa308bd	-0.0012438517
111	0xbe73dbd0	-0.2381432
112	0xbea94162	-0.33057696
113	0x3e7cffc7	0.24706946
114	0xbed2a2ff	-0.4113998
115	0xbea975f4	-0.33097804
116	0xbca145ea	-0.019686658
117	0xbf0a3122	-0.5398122
118	0xbe9eae8f	-0.30992553
119	0x3dc8c5a3	0.09803321
120	0xbe80c203	-0.2514802
121	0x3c13cb39	0.00902062
122	0xbe1e0be0	-0.15434217
123	0xbe7a43f4	-0.24439985
124	0xbed32608	-0.41239953
125	0x3e649619	0.22322883
126	0xbe5aec04	-0.21379095
127	0xbee04841	-0.43805125
128	0xbd480a8f	-0.048838194
129	0xbe7fa110	-0.24963784
130	0xbda0f1b5	-0.07858602
131	0xbea13c91	-0.3149152
132	0xbcf11db8	-0.029433116
133	0xbde509bd	-0.11183498
134	0xbec9de7a	-0.3942755
135	0x3e8213c8	0.25405717
136	0xbeb15720	-0.34636784
137	0xbea098b9	-0.31366518
138	0xbf0ae61f	-0.54257387
139	0x3ea5cd69	0.32383278
140	0x3d0650ff	0.032792088
141	0x3d62dd47	0.055386808
142	0x3dd480bc	0.10376117
143	0xbea90376	-0.33010453
144	0xbedb0154	-0.4277445
145	0x3c9b35e4	0.018946595
146	0x3e585acf	0.2112839
147	0xbd8f5c5e	-0.070000395
148	0xbe004b04	-0.12528616
149	0xbdd4c411	-0.10388959
150	0xbdfc263e	-0.123119816
151	0xbd2d09dd	-0.042245734
152	0x3db6d0bd	0.089265324
153	0x3e0b922c	0.13629979
154	0x3e62f9f6	0.22165665
155	0x3de043fb	0.10950466
156	0xbc67d9ee	-0.01415108
157	0xbe7ad09e	-0.24493644
158	0xbc9b48ab	-0.01895555
159	0x3c361f36	0.01111584
160	0xbd5c7312	-0.053820677
161	0xbd154959	-0.036446903
162	0xbd66b63e	-0.056326143
163	0xbde15cc9	-0.110040255
164	0xbd8dd6cf	-0.06925737
165	0xbce3f6ef	-0.027827708
166	0x3d7f65df	0.06235301
167	0x3e4fc5f9	0.20290364
168	0x3c23f561	0.010007233
169	0xb7867184	-1.6026905e-05
170	0x3d0477bc	0.03234075
171	0x3ce341f9	0.02774142
172	0x3dae361f	0.085064165
173	0x3ebb26aa	0.36552936
174	0xbf28fe2e	-0.6601285
175	0xbee05571	-0.43815187
176	0xbefee5fd	-0.49784842
177	0xc00b0bf2	-2.172604
178	0x3d1ef84a	0.038811006
179	0x3d4403fd	0.047855366
180	0x3da908bb	0.08253618
181	0x3e1cf802	0.15328982
182	0x3e1d33f5	0.15351851
183	0x3c4f9f4e	0.012672259
184	0x3b8ba124	0.004261153
185	0x3db33e3c	0.08752105
186	0x3dacd230	0.084385276
187	0xbda43d8c	-0.08019552
188	0xbd2ac868	-0.04169503
189	0x3da7ae71	0.08187569
190	0x3ed01442	0.40640455
191	0xbefcca96	-0.4937331
192	0xbef0e004	-0.4704591
193	0xbed89db0	-0.42307806
194	0xbfe74543	-1.8068012
195	0xbd20542f	-0.039142784
196	0x3d8dd1f9	0.06924815
197	0x3a9dbf68	0.0012035193
198	0xbda76d8d	-0.08175192
199	0x3c4718b0	0.012151882
200	0x3c7f6ab3	0.015589404
201	0x3dbc814e	0.092043504
202	0xbc7b1402	-0.015324594
203	0xbbf65cf7	-0.0075184065
204	0xbd1bbe9a	-0.03802357
205	0x3d4a5a5b	0.049402576
206	0x3da9ce8a	0.08291347
207	0x3e3d7ade	0.18503901
208	0x3e0b5df2	0.13610056
209	0x3dd1d660	0.10245967
210	0x3c55626a	0.013023952
211	0xbd07d21d	-0.033159364
212	0x3e15534b	0.14582555
213	0x3d8bf64a	0.06834085
214	0x3dc46858	0.095902145
215	0x3dc5e6e3	0.09663179
216	0xbdaf5b75	-0.08562366
217	0x3a6b7842	0.00089824584
218	0x3dcf633e	0.10126351
219	0xbb34969c	-0.002755559
220	0x3ba72187	0.0051004323
221	0x3c23544d	0.009968829
222	0xbdd0dbf0	-0.101982
223	0xba306aec	-0.00067298
224	0xbb1437b1	-0.0022616202
225	0xbdc235b6	-0.09482901
226	0x3d5e40ce	0.05426102
227	0xbe1cd925	-0.15317209
228	0xbe0b026c	-0.13575143
229	0xbb55a00a	-0.0032596611
230	0x3db8d76a	0.09025462
231	0x3eaa326a	0.33241588
232	0xbce204b0	-0.027590126
233	0xbc5e9a59	-0.013586604
234	0xbcc4e30e	-0.02403405
235	0x3e2170d0	0.15765691
236	0x3e161ac3	0.14658646
237	0xbe4c8f71	-0.19976594
238	0xbd2b4947	-0.04181793
239	0x3d071e69	0.032987986
240	0x3d512ea6	0.051069878
241	0x3e53c0a0	0.2067895
242	0xbda8fe53	-0.082516335
243	0xbe1b6775	-0.15176184
244	0xbbb5772b	-0.0055378876
245	0x3dd77bfa	0.105216935
246	0x3e4a31b0	0.19745517
247	0xbec08233	-0.37599334
248	0x3ce1508e	0.027504232
249	0xbbda192e	-0.0066558337
250	0x3b190de8	0.0023354236
251	0x3e37b654	0.17940646
252	0x3d38cd28	0.045117527
253	0xbe2fdd19	-0.17174186
254	0x3cda866d	0.026675427
255	0x3be9b0f1	0.0071316888

fc1.bias f4 [64]
0	0x3dd08b45	0.101828136
1	0x3db4ad3a	0.08822103
2	0xbd9b3ff1	-0.07580555
3	0xbe0b6083	-0.13611035
4	0x3e486909	0.19571318
5	0x3cfd5b4a	0.03092732
6	0xbe07a761	-0.13247444
7	0x3dad14d7	0.084512405
8	0x3d3cd2d2	0.04609949
9	0xbe2d2dcc	-0.16912001
10	0x3dfb4de7	0.12270718
11	0x3e20d645	0.15706737
12	0x3e144c7e	0.14482304
13	0x3dce2c34	0.10067025
14	0xbb278462	-0.0025561084
15	0xbd4015e1	-0.046895865
16	0xbcc2ee2d	-0.023795212
17	0xbc0db945	-0.008650129
18	0x3d2a43e6	0.04156866
19	0xbe4eaed7	-0.20183884
20	0xbd36d38f	-0.04463535
21	0x3d12e25d	0.035860408
22	0x3de920d3	0.11383214
23	0xbd991239	-0.07474179
24	0xbd90ccd2	-0.070703164
25	0x3e2429d8	0.16031587
26	0xbd27557d	-0.040853012
27	0xbe0d9ef2	-0.13830164
28	0x3e1aa2a2	0.15101102
29	0x3e2f7bf4	0.17137128
30	0xbdf102c9	-0.11768109
31	0xbe426a81	-0.1898594
32	0x3e1d53bd	0.15363975
33	0xbc8d2b68	-0.017232612
34	0xbda5cdb6	-0.08095877
35	0x3dc64c66	0.096825406
36	0xbd571a10	-0.05251509
37	0xbb01e09c	-0.0019817716
38	0xbdb5b6be	-0.08872746
39	0xbdd2366b	-0.10264286
40	0xbdb0c135	-0.08630601
41	0x3d021451	0.031757656
42	0xbdf633da	-0.12021609
43	0x3e90fe2b	0.28318915
44	0x3c68b087	0.014202244
45	0xbe0018a4	-0.125094
46	0x3d289729	0.041159783
47	0xbe272cb4	-0.16325647
48	0xbe1b3edc	-0.15160698
49	0x3d8be4c8	0.06830746
50	0xbe052d55	-0.13005574
51	0x3e1d2cd6	0.15349135
52	0xbd8fe083	-0.07025244
53	0xbda03438	-0.0782246
54	0xbe261fb5	-0.16223033
55	0x3d19a5e5	0.037511725
56	0x3df44ba8	0.11928493
57	0x3d0bf7a3	0.03417171
58	0xbda973c5	-0.082740344
59	0xbdc104c3	-0.09424736
60	0x3d8119ed	0.06303773
61	0x3d1b652c	0.037938282
62	0x3d02c5f3	0.03192706
63	0x3d642f3f	0.05570912

fc2.weight f4 [64, 64]
0	0x3e0e2e97	0.1388496
1	0x3d959540	0.07303858
2	0x3e27ef28	0.16399825
3	0x3e95edfd	0.29283133
4	0xbdf6ddf4	-0.12054053
5	0xbe3c643e	-0.18397614
6	0xbf1440b9	-0.5791126
7	0xbcf3d796	-0.029765885
8	0x3e2de370	0.16981292
9	0xbe0c36bf	-0.13692759
10	0x3ca6eae2	0.020375673
11	0xbdecb104	-0.115572006
12	0xbe2ccccf	-0.16875003
13	0x3e6c7125	0.23090036
14	0x3dcb6aef	0.09932505
15	0x3def57b7	0.11686652
16	0xbd8b77df	-0.06809973
17	0xbe5654d7	-0.20930801
18	0x3e05d14c	0.13068122
19	0x3d9d6de8	0.076869786
20	0xbe2942d6	-0.16529402
21	0x3d168572	0.036748357
22	0xbd5403a8	-0.0517613
23	0x3d65666a	0.056005873
24	0xbcccb525	-0.02498872
25	0xbe8c2b20	-0.27376652
26	0x3edae3e7	0.42752
27	0x3c8831fa	0.016625393
28	0x3ae1ea35	0.0017235937
29	0xbd932ccd	-0.071862794
30	0x3e456a1f	0.19278763
31	0xbdd4a523	-0.1038306
32	0xbd4e5cb6	-0.050381385
33	0x3e1bb03f	0.15203951
34	0xbd653d16	-0.05596646
35	0xbd47a14d	-0.048737813
36	0xbdbcbcf1	-0.09215725
37	0x3e812373	0.25222358
38	0xbd72d3c0	-0.05928397
39	0xbec85f4c	-0.39135206
40	0xbe9b2787	-0.30303594
41	0xbd42ae65	-0.047529597
42	0x3e294a4e	0.16532251
43	0xbcecb06e	-0.028892722
44	0xbe225a17	-0.15854679
45	0xbdd9806a	-0.10620196
46	0xbe8b1400	-0.27163696
47	0xbdc4a34e	-0.096014604
48	0xbee8905c	-0.45422637
49	0xbe3cd34b	-0.18439977
50	0xbe2b9988	-0.16757786
51	0x3c1d2774	0.009591926
52	0xbe9cc71b	-0.30620655
53	0x3e418c8f	0.18901275
54	0xbe9e9a5b	-0.3097714
55	0xbde14a6a	-0.110005215
56	0x3dc831bc	0.09775111
57	0xbe3cfacf	-0.18455051
58	0xbe4cae90	-0.19988465
59	0xbd9daabb	-0.0769858
60	0x3d5c7644	0.053823724
61	0x3d9cb9bb	0.07652613
62	0xbc47ce1d	-0.012195137
63	0xbce03737	-0.027370078
64	0x3c4824a6	0.012215769
65	0x3d6b4130	0.057435215
66	0xbd75e6f8	-0.060034722
67	0x3e599364	0.21247631
68	0xbd64ad22	-0.055829175
69	0x3e97d631	0.29655603
70	0xbe7c5a17	-0.24643742
71	0x3d882e91	0.06649507
72	0xbe0adfff	-0.1356201
73	0xbe26fa95	-0.16306527
74	0x3d9d35c4	0.076762706
75	0x3e809774	0.2511555
76	0xbe1e8a5d	-0.15482469
77	0x3ccccd58	0.02500026
78	0x3e5f149e	0.21785209
79	0xbbe7b54e	-0.0070711737
80	0xbe2b3e40	-0.16722965
81	0x3e308355	0.17237599
82	0xbe7f516c	-0.24933404
83	0xbe329bde	-0.17442271
84	0x3e317003	0.17327885
85	0xbde7e53d	-0.113230206
86	0x3ce37840	0.0277673
87	0xbe9d5111	-0.3072591
88	0x3df25255	0.1183211
89	0x3c20327e	0.009777663
90	0xbd387acc	-0.045038983
91	0xbe8d646c	-0.27615678
92	0xbd9d7c8c	-0.07689771
93	0xbdc3a200	-0.095523834
94	0x3ceb613e	0.028732892
95	0xbe1b6de3	-0.15178637
96	0xbe11eacd	-0.14249726
97	0xbc13d804	-0.00902367
98	0x3d8c3816	0.06846635
99	0xbd2cda49	-0.04220036
100	0xbcd42a95	-0.025899211
101	0x3d73ab74	0.059489682
102	0x3eb9d108	0.3629229
103	0xbe3a0096	-0.18164286
104	0xbdb531b8	-0.08847374
105	0x3e991307	0.2989733
106	0xbdfb9a0c	-0.122852415
107	0xbe214400	-0.15748596
108	0xbea7b0b1	-0.32751992
109	0xbe821a7f	-0.2541084
110	0xbdd9cd61	-0.10634876
111	0xbd6716c9	-0.056418214
112	0x3bf81caa	0.0075717764
113	0xbe6a6438	-0.22889793
114	0xbe31f026	-0.17376766
115	0x3e61286e	0.21988079
116	0xbd67cf4b	-0.056594174
117	0x3eb9d2b0	0.36293554
118	0xbe6961f6	-0.22791275
119	0xbcaf3b79	-0.021390663
120	0xbe01e3d2	-0.12684563
121	0x3d844954	0.06459299
122	0xbc083c04	-0.00831509
123	0xbd234611	-0.039861742
124	0xbe22d4e1	-0.1590152
125	0xbd952798	-0.072829425
126	0x3c830c2b	0.015997013
127	0xbe2b6694	-0.16738349
128	0xbe8dc49f	-0.27689072
129	0xbd57fa42	-0.0527289
130	0xbdd20b29	-0.10256035
131	0xbd5e5e93	-0.05428941
132	0xbd6dd678	-0.05806586
133	0x3cb6080b	0.022220632
134	0xbdb883fd	-0.0900955
135	0xbdeababf	-0.114614
136	0xbd4da256	-0.050203644
137	0x3df58025	0.11987332
138	0xbe003c7e	-0.12523076
139	0xbe750a46	-0.239297
140	0x3e196bac	0.1498248
141	0x3da8128f	0.08206665
142	0x3edd6b71	0.43246034
143	0x3ad9dcee	0.0016621628
144	0xbe7d4e7b	-0.24736969
145	0x3db2b034	0.08725014
146	0xbdc70319	-0.09717388
147	0xbe5526fb	-0.20815651
148	0xbe6561f1	-0.22400643
149	0xbdefdaea	-0.117116764
150	0xbe3f4914	-0.18680221
151	0xbd8ffbc0	-0.070304394
152	0xbedb135d	-0.4278821
153	0x3ea14f89	0.31505993
154	0x3e4daf86	0.20086488
155	0x3e759489	0.23982443
156	0xbda9a846	-0.08284049
157	0xbdaaa56b	-0.08332332
158	0x3e8151b9	0.25257662
159	0x3dccd018	0.10000628
160	0xbe549e8d	-0.20763607
161	0x3d283336	0.041064464
162	0xbd179fd3	-0.037017655
163	0x3eb40942	0.35163313
164	0x3d54c133	0.05194206
165	0xbd8f2b04	-0.069906265
166	0x3daa8223	0.08325603
167	0x3e1e4b60	0.15458441
168	0x3e95cd65	0.29258266
169	0xbda6274c	-0.08112964
170	0xbda33cb0	-0.079705596
171	0xbcee751f	-0.029108582
172	0xbe65819e	-0.22412726
173	0x3e19785a	0.14987317
174	0xbe9d96be	-0.3077907
175	0xbe881980	-0.26581955
176	0xbe2e356c	-0.17012566
177	0xbe73cf1d	-0.23809476
178	0xbebf5019	-0.37365797
179	0x3d96b7de	0.07359289
180	0xbe768071	-0.24072434
181	0xbd888a38	-0.06666988
182	0xbf062330	-0.5239744
183	0x3e227556	0.15865073
184	0xbe6c0012	-0.23046902
185	0xbda67d56	-0.08129375
186	0xbecd0a5d	-0.4004697
187	0x3dd6ec5e	0.10494302
188	0xbeb487a6	-0.35259742
189	0x3ef7eac8	0.4842131
190	0x3e37ed7e	0.1796169
191	0xbe4254f0	-0.18977714
192	0xbd06659b	-0.032811742
193	0xbcbd75ab	-0.023127398
194	0xbe4c85db	-0.19972937
195	0xbdf9a075	-0.12188808
196	0xbecbe9c7	-0.39826795
197	0xbd84c543	-0.06482937
198	0xbe9106e1	-0.2832556
199	0xbe193994	-0.1496337
200	0xbe86b831	-0.26312402
201	0xbe932515	-0.2873923
202	0x3e36591c	0.1780743
203	0xbdb002f1	-0.08594311
204	0xbe40caaf	-0.18827318
205	0x3e22ea95	0.15909798
206	0xbdab4e5f	-0.083645575
207	0xbe729e6e	-0.23693249
208	0xbdaa3e8a	-0.0831271
209	0x3e0d4969	0.13797535
210	0x3c0e6133	0.008690166
211	0xbe49e829	-0.19717468
212	0xbe112a49	-0.14176287
213	0x3e3d36d9	0.18477954
214	0xbd3579b8	-0.044305533
215	0x3df9d281	0.121983536
216	0xbba339af	-0.0049812417
217	0x3de947b5	0.1139063
218	0x3e798f1c	0.24370998
219	0xbca39080	-0.019966364
220	0x3e1eeb50	0.15519452
221	0xbe2b2568	-0.16713488
222	0x3e750736	0.23928532
223	0xbe692686	-0.22768602
224	0xbda8f9c6	-0.082507655
225	0xbdca2a18	-0.0987131
226	0x3ba220cf	0.0049477587
227	0x3e038488	0.12843525
228	0x3ce51ede	0.02796882
229	0x3e2ce2aa	0.1688334
230	0x3e569665	0.20955808
231	0xbe46ff3a	-0.19433299
232	0x3e3146e2	0.17312196
233	0x3d5e9f8e	0.054351382
234	0xbd334720	-0.043769002
235	0x3d9c5596	0.07633512
236	0xbdba7502	-0.09104349
237	0x3e3fbd9b	0.18724672
238	0x3cd50bd2	0.026006613
239	0xbdcb5e3f	-0.099300854
240	0xbed1c396	-0.40969533
241	0x3b93448f	0.004494257
242	0xbe48ec2f	-0.19621347
243	0xbdab3f32	-0.08361663
244	0x3d9ff8d6	0.078111336
245	0xbd9d3ba8	-0.07677394
246	0xbe6d7dc7	-0.23192511
247	0xbd0e2f29	-0.034712944
248	0xbe2dfdff	-0.16991423
249	0x3d592dc4	0.05302216
250	0x3d467ad3	0.048456978
251	0x3e4d2003	0.20031743
252	0xbe6d44c3	-0.23170762
253	0x3bec6b02	0.0072149048
254	0xbeb22608	-0.3479464
255	0xbdaf64f6	-0.08564179

fc2.bias f4 [64]
0	0xbc368b9f	-0.011141687
1	0xbd5fd961	-0.054650668
2	0x3d4ba62d	0.049719024
3	0x3daafeed	0.083494045
4	0x3e30243f	0.17201327
5	0xbdb0aa11	-0.086261876
6	0xbd9db94f	-0.077013604
7	0xbcd5c1df	-0.026093422
8	0x3e84f16f	0.2596545
9	0x3ed9a852	0.4251123
10	0xbe07d37c	-0.13264269
11	0x3e696574	0.22792608
12	0x3d23fe36	0.040037356
13	0xbd1d5494	-0.038410738
14	0xbdbb4457	-0.09143894
15	0xbd6a0887	-0.05713704
16	0x3d1c1be9	0.038112555
17	0xbb516f0b	-0.0031957056
18	0xbdca1f58	-0.098692596
19	0x3d93ab3e	0.07210396
20	0x3ea89a90	0.32930422
21	0x3ee40a39	0.4453905
22	0xbe07fa70	-0.13279128
23	0xbd0ab9fa	-0.033868767
24	0xbe1a5d31	-0.15074612
25	0xbd85b679	-0.065289445
26	0x3e0a271c	0.13491482
27	0xbcdb311e	-0.02675682
28	0xbd9f02f5	-0.07764236
29	0x3decf2ec	0.11569771
30	0xbb8bc548	-0.004265461
31	0xbd2d58fe	-0.042321198
32	0xbc382fb8	-0.011241846
33	0x3e377902	0.17917255
34	0x3dbb5fd4	0.09149137
35	0x3c49e77a	0.012323255
36	0x3c345a55	0.011007865
37	0xbe336d8c	-0.17522258
38	0x3e9a7615	0.30168214
39	0xbce09f9d	-0.02741986
40	0xbc95782e	-0.018245783
41	0x3ef56ed9	0.47936133
42	0x3e6c3449	0.2306682
43	0xbdf6b909	-0.120470114
44	0x3d487595	0.04894026
45	0xbde5762b	-0.112041794
46	0x3e91f2f7	0.2850568
47	0xbde7c0d7	-0.11316078
48	0xbd54c228	-0.051942974
49	0xbd28515c	-0.041093215
50	0xbe1190f0	-0.14215446
51	0x3e1fe85b	0.1561598
52	0xbbd6d271	-0.0065558483
53	0xbd741412	-0.059589453
54	0x3ea7e7d7	0.32794067
55	0xbd339630	-0.0438444
56	0xbe870fb9	-0.26379183
57	0xbe1ca6a3	-0.15297942
58	0x3d19dc7a	0.03756378
59	0xbd961917	-0.07329004
60	0x3cb79b89	0.022413032
61	0x3e26c25e	0.16285083
62	0xb9ed5b1c	-0.00045272044
63	0xbda8d08c	-0.08242902

fc3.weight f4 [4, 64]
0	0xbf15638f	-0.5835504
1	0xbbe30181	-0.0069276695
2	0x3ea6b9e7	0.32563707
3	0x3d99bdf0	0.07506931
4	0x3e49b3ad	0.19697447
5	0x3cc5b00d	0.0241318
6	0x3dd26a76	0.10274212
7	0xbe41025d	-0.18848558
8	0x3e0b7529	0.13618912
9	0x3e004bbf	0.12528895
10	0xbe41f957	-0.18942772
11	0x3eb21478	0.3478124
12	0x3da67768	0.08128244
13	0x3e26e093	0.16296606
14	0xbcb9fbef	-0.02270314
15	0x3ef8ba82	0.48579794
16	0xbe0c01a1	-0.13672496
17	0x3e6b3d8a	0.22972694
18	0xbbc0914f	-0.005876697
19	0x3ec418a7	0.38300058
20	0x3e2079c5	0.15671451
21	0x3dea611c	0.114443034
22	0xbd89665a	-0.06708975
23	0x3ea3e0da	0.32007486
24	0xbea88974	-0.32917368
25	0xbdf4b2f7	-0.11948197
26	0xbb08e278	-0.002088694
27	0xbe5a6ea0	-0.21331263
28	0x3c35b954	0.011091549
29	0xbe421aa6	-0.18955478
30	0xbe44b3f9	-0.19209279
31	0x3d7382ed	0.059451032
32	0x3df81474	0.12113276
33	0x3e3c0f49	0.18365206
34	0x3dd1cc7f	0.10244083
35	0x3d944453	0.07239594
36	0x3e212bd5	0.15739377
37	0xbe6b505f	-0.22979878
38	0x3e893abf	0.26802632
39	0x3f0cd863	0.5501768
40	0xbbb0b311	-0.00539244
41	0x3e1c9866	0.1529251
42	0x3dd97d03	0.10619547
43	0xbded6327	-0.115911774
44	0x3e79d32a	0.24396959
45	0x3bcc2ffe	0.006231307
46	0x3e393114	0.18085128
47	0x3e08e427	0.13368283
48	0xbd5fb2f4	-0.054614022
49	0x3e32a4da	0.17445698
50	0xbe48fca2	-0.19627622
51	0x3f2225f8	0.63339186
52	0x3e18a0a9	0.14905037
53	0x3e8daeb8	0.27672362
54	0x3dfdf4a5	0.12400178
55	0x3dbd3d80	0.09240246
56	0xbe409f22	-0.18810704
57	0x3d436518	0.047703832
58	0x3e98bf29	0.29833344
59	0xbd46bc4b	-0.048519414
60	0xbeaabc9f	-0.3334703
61	0x3e54b9d3	0.20774011
62	0xbdca5785	-0.09879974
63	0x3e06819d	0.13135381
64	0x3e50351d	0.20332761
65	0x3db4ba1b	0.08824559
66	0x3f14a86c	0.5806949
67	0xbeb79162	-0.35853106
68	0x3e6f0d5d	0.23344941
69	0xbf0ad854	-0.5423634
70	0x3e12641e	0.14296004
71	0x3cbe4e6d	0.023230756
72	0x3b134ba8	0.0022475515
73	0x3df1eec9	0.11813123
74	0x3e89c61a	0.26908952
75	0x3e61f310	0.22065377
76	0x3be9a8c9	0.0071307165
77	0x3eaae72e	0.333795
78	0xbba1bac5	-0.0049355947
79	0x3ec1a85f	0.3782377
80	0xbe29608c	-0.16540736
81	0xbed7e8fb	-0.42169937
82	0xbda1365d	-0.07871697
83	0x3eaa958a	0.33317214
84	0x3df76ced	0.12081323
85	0x3e387783	0.1801434
86	0xbe04b538	-0.12959754
87	0x3f183219	0.5945144
88	0x3dad02c4	0.08447793
89	0xbe0c8434	-0.13722306
90	0x3d9ed942	0.077562824
91	0xbf132e64	-0.5749266
92	0xbe573a05	-0.21018226
93	0xbdd1168f	-0.10209381
94	0xbe17de7b	-0.14830963
95	0x3e4ea1d9	0.20178927
96	0x3dc94de9	0.09829313
97	0x3e21b4bc	0.15791601
98	0x3dcb2cc2	0.09920646
99	0xbe5aed5c	-0.21379608
100	0x3e76849b	0.24074022
101	0xbe5dcda5	-0.21660478
102	0x3e497dcc	0.19676894
103	0x3ec958ad	0.39325467
104	0x3dd99761	0.10624576
105	0x3e3e2fe4	0.18572956
106	0x3d6d0f83	0.05787612
107	0x3cf661e8	0.030075982
108	0xbeb251d7	-0.34828064
109	0xbbb19a31	-0.0054199924
110	0x3e0bc7e4	0.13650471
111	0x3d9ed1ff	0.07754897
112	0x3c9d41cf	0.019196419
113	0x3e10a63e	0.14125916
114	0xbe4c6e81	-0.19964029
115	0x3f039792	0.5140315
116	0x3e82aa38	0.25520492
117	0x3e59a366	0.21253738
118	0x3dc035cb	0.0938526
119	0x3d4b388c	0.049614474
120	0xbe314908	-0.17313015
121	0xbd43e32b	-0.047824066
122	0x3eb852cf	0.36000678
123	0xbd19cc06	-0.037548088
124	0xbcd90040	-0.026489377
125	0x3de1ae29	0.110195465
126	0xbe5f6b32	-0.21818236
127	0xbcf34bf1	-0.029699298
128	0x3e1995c9	0.14998545
129	0x3ea5c4e5	0.3237678
130	0x3effeaff	0.49983975
131	0x3e8b67e4	0.272277
132	0x3ea72bab	0.32650504
133	0xbeafdc7d	-0.34347907
134	0x3ea0e66e	0.31425804
135	0x3d65119f	0.055925008
136	0x3dbdbc5a	0.09264441
137	0x3e1000a5	0.14062746
138	0xbd9e101d	-0.07717917
139	0x3e494e67	0.19658814
140	0x3e73cd1b	0.2380871
141	0x3c1ef149	0.009701082
142	0xbd985c66	-0.074394986
143	0x3f0c8f3c	0.5490606
144	0x3e468270	0.19385695
145	0xbf121bbc	-0.5707357
146	0xbd7f19d4	-0.06228049
147	0x3ead6b03	0.33870706
148	0x3d44c230	0.048036754
149	0x3e472f17	0.19451557
150	0xbe72f329	-0.2372557
151	0xbe42ac09	-0.19010939
152	0x3e0b53d4	0.13606197
153	0xbda37982	-0.0798216
154	0x3d6567a7	0.056007054
155	0xbe9da945	-0.30793205
156	0x3e03f80d	0.12887593
157	0x3e01f230	0.12690043
158	0xbe8303b4	-0.25588763
159	0xbcdb81d2	-0.026795302
160	0x3e722a71	0.23649003
161	0x3e3cc153	0.18433122
162	0x3e633227	0.221871
163	0x3ee3e3fa	0.4450987
164	0x3ccea9e5	0.025227496
165	0xbe2ea7b0	-0.17056155
166	0x3e7abb15	0.24485429
167	0x3ea894aa	0.32925922
168	0x3e204244	0.15650278
169	0x3e148ce5	0.14506872
170	0x3d95f5c5	0.073222674
171	0x3d978570	0.07398498
172	0x3f074b15	0.5284894
173	0xbdd77459	-0.105202384
174	0x3e2d9b72	0.16953829
175	0x3e65b580	0.22432518
176	0xbc7e628b	-0.015526424
177	0x3df18941	0.11793757
178	0xbe580811	-0.21096827
179	0x3f0412f3	0.51591414
180	0x3e826407	0.2546694
181	0x3ec2a864	0.38019097
182	0x3e250346	0.1611453
183	0x3e80f027	0.25183222
184	0xbe2e8521	-0.17042972
185	0xbdb91b26	-0.09038381
186	0x3d154d3c	0.03645061
187	0xbe6bba4e	-0.23020288
188	0xbe943fce	-0.2895493
189	0x3df6d465	0.1205223
190	0xbea8f8a3	-0.33002195
191	0x3f06332d	0.5242184
192	0x3e2a8f45	0.16656215
193	0x3edffe3b	0.4374865
194	0xbd308c00	-0.043102264
195	0xbe9506cc	-0.29106748
196	0x3e12e0ec	0.14343613
197	0x3e85a282	0.26100546
198	0x3cfa6a58	0.030568287
199	0xbd5c2aeb	-0.053751867
200	0x3ddfb22d	0.10922656
201	0x3e40397f	0.18771933
202	0x3e44bf32	0.1921356
203	0x3dc35532	0.09537734
204	0x3e3186e4	0.17336613
205	0x3ece89be	0.40339464
206	0x3d72be00	0.05926323
207	0xbba91ac5	-0.005160662
208	0x3c811ebb	0.015761724
209	0x3de04638	0.10950893
210	0x3d8c72f2	0.068578616
211	0x3ed5c896	0.41754597
212	0x3decdc9f	0.11565518
213	0x3e22b762	0.15890267
214	0x3db99256	0.090611145
215	0x3f151c70	0.5824652
216	0xbe49e21c	-0.1971516
217	0xbe92ad3b	-0.2864779
218	0x3e354132	0.17700651
219	0xbe1736ab	-0.14766948
220	0x3ca19869	0.019725995
221	0xbde29e54	-0.11065355
222	0xbe52671e	-0.20547149
223	0x3e5bdbe7	0.21470605
224	0xbe47c8bc	-0.19510168
225	0x3e796a34	0.2435692
226	0x3d59aa8a	0.053141154
227	0x3e55acb6	0.20866665
228	0x3d62185f	0.055199023
229	0xbdd170ef	-0.102266185
230	0x3e63c66c	0.2224366
231	0x3f08297e	0.5318831
232	0xbdb64a34	-0.08900872
233	0x3e4af6dc	0.19820732
234	0x3e70d754	0.23519641
235	0xbd3b6816	-0.04575356
236	0xbdbba4a0	-0.09162259
237	0xbe2e9471	-0.17048813
238	0x3df0aad1	0.11751331
239	0x3b688738	0.0035480987
240	0xbe4943fc	-0.1965484
241	0x3df86a4c	0.121296495
242	0x3d706133	0.058686446
243	0x3ea4090b	0.3203815
244	0x3dbc8abe	0.092061505
245	0x3e9ec747	0.31011412
246	0x3e0c76ba	0.13717166
247	0x3e847aed	0.25875035
248	0xbdf1e931	-0.11812056
249	0xbe86266f	-0.26201198
250	0x3e3713d0	0.17878652
251	0x3dde2121	0.108461626
252	0xbc53c107	-0.012924439
253	0x3e08a727	0.13345014
254	0xbe5ce3ff	-0.21571349
255	0xbe780a9a	-0.24222794

fc3.bias f4 [4]
0	0x3e94adbc	0.290388
1	0x3e8396bf	0.25700948
2	0x3e1adfc1	0.15124418
3	0x3e2b40da	0.16723958
